…
    "milestones": [],
    "lr_decay_rate": 0.1,
    "clip_grad": 0,
    "batch_size": 64,
    "max_epochs": 200,
    "cap": 30.1,
    "dataloader": "ltsf",
    "runner": "ltsf",
    "loss": "mae",
    "model_args": {
        "enc_in": 1,
        "seq_len": 672,
        "pred_len": 1,
        "individual": false
    }
}
==========================================================================================
Layer (type:depth-idx)                   Output Shape              Param #
==========================================================================================
DLinear                                  [64, 1, 1, 1]             --
├─series_decomp: 1-1                     [64, 672, 1]              --
│    └─moving_avg: 2-1                   [64, 672, 1]              --
│    │    └─AvgPool1d: 3-1               [64, 1, 672]              --
├─Linear: 1-2                            [64, 1, 1]                673
├─Linear: 1-3                            [64, 1, 1]                673
==========================================================================================
Total params: 1,346
Trainable params: 1,346
Non-trainable params: 0
Total mult-adds (Units.MEGABYTES): 0.09
==========================================================================================
Input size (MB): 0.17
Forward/backward pass size (MB): 0.00
Params size (MB): 0.01
Estimated Total Size (MB): 0.18
…
