…
    "milestones": [],
    "lr_decay_rate": 0.1,
    "clip_grad": 0,
    "batch_size": 64,
    "max_epochs": 200,
    "cap": 30.1,
    "dataloader": "ltsf",
    "runner": "ltsf",
    "loss": "mae",
    "model_args": {
        "enc_in": 1,
        "seq_len": 336,
        "pred_len": 288,
        "individual": false
    }
}
==========================================================================================
Layer (type:depth-idx)                   Output Shape              Param #
==========================================================================================
DLinear                                  [64, 288, 1, 1]           --
├─series_decomp: 1-1                     [64, 336, 1]              --
│    └─moving_avg: 2-1                   [64, 336, 1]              --
│    │    └─AvgPool1d: 3-1               [64, 1, 336]              --
├─Linear: 1-2                            [64, 1, 288]              97,056
├─Linear: 1-3                            [64, 1, 288]              97,056
==========================================================================================
Total params: 194,112
Trainable params: 194,112
Non-trainable params: 0
Total mult-adds (Units.MEGABYTES): 12.42
==========================================================================================
Input size (MB): 0.09
Forward/backward pass size (MB): 0.29
Params size (MB): 0.78
Estimated Total Size (MB): 1.16
…
